…
Building model 'ast' with config: {'name': 'ast', 'audioset_pretrain': True, 'input_fdim': 128, 'input_tdim': 1024, 'model_size': 'base384', 'fstride': 10, 'tstride': 10, 'imagenet_pretrain': True, 'label_dim': 4, 'backbone_only': False, 'audioset_ckpt_path': '/home/AIoT04/Dev/pretrained_models/audioset_10_10_0.4593.pth', 'dropout': 0.5}
---------------AST Model Summary---------------
ImageNet pretraining: True, AudioSet pretraining: True
Loading AudioSet pretrained model from /home/AIoT04/Dev/pretrained_models/audioset_10_10_0.4593.pth
Vision transformer model size base384 created.
frequncey stride=10, time stride=10
number of patches=1212
ASTModel(
  (reg_dropout): Dropout(p=0.5, inplace=False)
  (v): DistilledVisionTransformer(
    (patch_embed): PatchEmbed(
      (proj): Conv2d(1, 768, kernel_size=(16, 16), stride=(10, 10))
    )
    (pos_drop): Dropout(p=0.0, inplace=False)
    (blocks): ModuleList(
      (0-11): 12 x Block(
        (norm1): LayerNorm((768,), eps=1e-06, elementwise_affine=True)
        (attn): Attention(
          (qkv): Linear(in_features=768, out_features=2304, bias=True)
          (attn_drop): Dropout(p=0.0, inplace=False)
          (proj): Linear(in_features=768, out_features=768, bias=True)
          (proj_drop): Dropout(p=0.0, inplace=False)
        )
        (drop_path): Identity()
        (norm2): LayerNorm((768,), eps=1e-06, elementwise_affine=True)
        (mlp): Mlp(
          (fc1): Linear(in_features=768, out_features=3072, bias=True)
          (act): GELU(approximate='none')
          (fc2): Linear(in_features=3072, out_features=768, bias=True)
          (drop): Dropout(p=0.0, inplace=False)
        )
      )
    )
    (norm): LayerNorm((768,), eps=1e-06, elementwise_affine=True)
    (pre_logits): Identity()
    (head): Linear(in_features=768, out_features=1000, bias=True)
    (head_dist): Linear(in_features=768, out_features=1000, bias=True)
  )
  (mlp_head): Sequential(
    (0): LayerNorm((768,), eps=1e-05, elementwise_affine=True)
    (1): Dropout(p=0.5, inplace=False)
    (2): Linear(in_features=768, out_features=4, bias=True)
  )
)
Model has 87729876 trainable parameters
[CUDA] Visible devices set to: 0, 1, 2, 3, 4, 5, 6, 7, 8, 9
Number of available CUDA devices: 8
[Device] Using CUDA:3 -> NVIDIA A100-SXM4-40GB
Model moved to cuda:3
Using Scheduler: cosine
[Train][Epoch 1]:   0%|          | 0/517 [00:00<?, ?it/s][Train][Epoch 1]:   0%|          | 1/517 [00:04<40:42,  4.73s/
…
